{"modelTopology":{"class_name":"Model","config":{"name":"model1","layers":[{"name":"input1","class_name":"InputLayer","config":{"batch_input_shape":[null,10],"dtype":"float32","sparse":false,"name":"input1"},"inbound_nodes":[]},{"name":"input2","class_name":"InputLayer","config":{"batch_input_shape":[null,10],"dtype":"float32","sparse":false,"name":"input2"},"inbound_nodes":[]},{"name":"input3","class_name":"InputLayer","config":{"batch_input_shape":[null,10],"dtype":"float32","sparse":false,"name":"input3"},"inbound_nodes":[]},{"name":"input4","class_name":"InputLayer","config":{"batch_input_shape":[null,10],"dtype":"float32","sparse":false,"name":"input4"},"inbound_nodes":[]},{"name":"input5","class_name":"InputLayer","config":{"batch_input_shape":[null,10],"dtype":"float32","sparse":false,"name":"input5"},"inbound_nodes":[]},{"name":"input6","class_name":"InputLayer","config":{"batch_input_shape":[null,10],"dtype":"float32","sparse":false,"name":"input6"},"inbound_nodes":[]},{"name":"input7","class_name":"InputLayer","config":{"batch_input_shape":[null,10],"dtype":"float32","sparse":false,"name":"input7"},"inbound_nodes":[]},{"name":"input8","class_name":"InputLayer","config":{"batch_input_shape":[null,10],"dtype":"float32","sparse":false,"name":"input8"},"inbound_nodes":[]},{"name":"input9","class_name":"InputLayer","config":{"batch_input_shape":[null,10],"dtype":"float32","sparse":false,"name":"input9"},"inbound_nodes":[]},{"name":"input10","class_name":"InputLayer","config":{"batch_input_shape":[null,10],"dtype":"float32","sparse":false,"name":"input10"},"inbound_nodes":[]},{"name":"input11","class_name":"InputLayer","config":{"batch_input_shape":[null,10],"dtype":"float32","sparse":false,"name":"input11"},"inbound_nodes":[]},{"name":"input12","class_name":"InputLayer","config":{"batch_input_shape":[null,10],"dtype":"float32","sparse":false,"name":"input12"},"inbound_nodes":[]},{"name":"input13","class_name":"InputLayer","config":{"batch_input_shape":[null,10],"dtype":"float32","sparse":false,"name":"input13"},"inbound_nodes":[]},{"name":"input14","class_name":"InputLayer","config":{"batch_input_shape":[null,10],"dtype":"float32","sparse":false,"name":"input14"},"inbound_nodes":[]},{"name":"input15","class_name":"InputLayer","config":{"batch_input_shape":[null,10],"dtype":"float32","sparse":false,"name":"input15"},"inbound_nodes":[]},{"name":"input16","class_name":"InputLayer","config":{"batch_input_shape":[null,10],"dtype":"float32","sparse":false,"name":"input16"},"inbound_nodes":[]},{"name":"input17","class_name":"InputLayer","config":{"batch_input_shape":[null,10],"dtype":"float32","sparse":false,"name":"input17"},"inbound_nodes":[]},{"name":"input18","class_name":"InputLayer","config":{"batch_input_shape":[null,10],"dtype":"float32","sparse":false,"name":"input18"},"inbound_nodes":[]},{"name":"input19","class_name":"InputLayer","config":{"batch_input_shape":[null,10],"dtype":"float32","sparse":false,"name":"input19"},"inbound_nodes":[]},{"name":"input20","class_name":"InputLayer","config":{"batch_input_shape":[null,10],"dtype":"float32","sparse":false,"name":"input20"},"inbound_nodes":[]},{"name":"input21","class_name":"InputLayer","config":{"batch_input_shape":[null,10],"dtype":"float32","sparse":false,"name":"input21"},"inbound_nodes":[]},{"name":"input22","class_name":"InputLayer","config":{"batch_input_shape":[null,10],"dtype":"float32","sparse":false,"name":"input22"},"inbound_nodes":[]},{"name":"input23","class_name":"InputLayer","config":{"batch_input_shape":[null,10],"dtype":"float32","sparse":false,"name":"input23"},"inbound_nodes":[]},{"name":"input24","class_name":"InputLayer","config":{"batch_input_shape":[null,10],"dtype":"float32","sparse":false,"name":"input24"},"inbound_nodes":[]},{"name":"input25","class_name":"InputLayer","config":{"batch_input_shape":[null,10],"dtype":"float32","sparse":false,"name":"input25"},"inbound_nodes":[]},{"name":"input26","class_name":"InputLayer","config":{"batch_input_shape":[null,10],"dtype":"float32","sparse":false,"name":"input26"},"inbound_nodes":[]},{"name":"input27","class_name":"InputLayer","config":{"batch_input_shape":[null,10],"dtype":"float32","sparse":false,"name":"input27"},"inbound_nodes":[]},{"name":"input28","class_name":"InputLayer","config":{"batch_input_shape":[null,10],"dtype":"float32","sparse":false,"name":"input28"},"inbound_nodes":[]},{"name":"input29","class_name":"InputLayer","config":{"batch_input_shape":[null,10],"dtype":"float32","sparse":false,"name":"input29"},"inbound_nodes":[]},{"name":"input30","class_name":"InputLayer","config":{"batch_input_shape":[null,10],"dtype":"float32","sparse":false,"name":"input30"},"inbound_nodes":[]},{"name":"input31","class_name":"InputLayer","config":{"batch_input_shape":[null,10],"dtype":"float32","sparse":false,"name":"input31"},"inbound_nodes":[]},{"name":"input32","class_name":"InputLayer","config":{"batch_input_shape":[null,10],"dtype":"float32","sparse":false,"name":"input32"},"inbound_nodes":[]},{"name":"input33","class_name":"InputLayer","config":{"batch_input_shape":[null,10],"dtype":"float32","sparse":false,"name":"input33"},"inbound_nodes":[]},{"name":"input34","class_name":"InputLayer","config":{"batch_input_shape":[null,10],"dtype":"float32","sparse":false,"name":"input34"},"inbound_nodes":[]},{"name":"input35","class_name":"InputLayer","config":{"batch_input_shape":[null,10],"dtype":"float32","sparse":false,"name":"input35"},"inbound_nodes":[]},{"name":"input36","class_name":"InputLayer","config":{"batch_input_shape":[null,10],"dtype":"float32","sparse":false,"name":"input36"},"inbound_nodes":[]},{"name":"input37","class_name":"InputLayer","config":{"batch_input_shape":[null,10],"dtype":"float32","sparse":false,"name":"input37"},"inbound_nodes":[]},{"name":"input38","class_name":"InputLayer","config":{"batch_input_shape":[null,10],"dtype":"float32","sparse":false,"name":"input38"},"inbound_nodes":[]},{"name":"input39","class_name":"InputLayer","config":{"batch_input_shape":[null,10],"dtype":"float32","sparse":false,"name":"input39"},"inbound_nodes":[]},{"name":"input40","class_name":"InputLayer","config":{"batch_input_shape":[null,10],"dtype":"float32","sparse":false,"name":"input40"},"inbound_nodes":[]},{"name":"input41","class_name":"InputLayer","config":{"batch_input_shape":[null,10],"dtype":"float32","sparse":false,"name":"input41"},"inbound_nodes":[]},{"name":"input42","class_name":"InputLayer","config":{"batch_input_shape":[null,10],"dtype":"float32","sparse":false,"name":"input42"},"inbound_nodes":[]},{"name":"input43","class_name":"InputLayer","config":{"batch_input_shape":[null,10],"dtype":"float32","sparse":false,"name":"input43"},"inbound_nodes":[]},{"name":"input44","class_name":"InputLayer","config":{"batch_input_shape":[null,10],"dtype":"float32","sparse":false,"name":"input44"},"inbound_nodes":[]},{"name":"input45","class_name":"InputLayer","config":{"batch_input_shape":[null,10],"dtype":"float32","sparse":false,"name":"input45"},"inbound_nodes":[]},{"name":"input46","class_name":"InputLayer","config":{"batch_input_shape":[null,10],"dtype":"float32","sparse":false,"name":"input46"},"inbound_nodes":[]},{"name":"input47","class_name":"InputLayer","config":{"batch_input_shape":[null,10],"dtype":"float32","sparse":false,"name":"input47"},"inbound_nodes":[]},{"name":"input48","class_name":"InputLayer","config":{"batch_input_shape":[null,10],"dtype":"float32","sparse":false,"name":"input48"},"inbound_nodes":[]},{"name":"input49","class_name":"InputLayer","config":{"batch_input_shape":[null,10],"dtype":"float32","sparse":false,"name":"input49"},"inbound_nodes":[]},{"name":"input50","class_name":"InputLayer","config":{"batch_input_shape":[null,10],"dtype":"float32","sparse":false,"name":"input50"},"inbound_nodes":[]},{"name":"input51","class_name":"InputLayer","config":{"batch_input_shape":[null,10],"dtype":"float32","sparse":false,"name":"input51"},"inbound_nodes":[]},{"name":"input52","class_name":"InputLayer","config":{"batch_input_shape":[null,10],"dtype":"float32","sparse":false,"name":"input52"},"inbound_nodes":[]},{"name":"input53","class_name":"InputLayer","config":{"batch_input_shape":[null,10],"dtype":"float32","sparse":false,"name":"input53"},"inbound_nodes":[]},{"name":"input54","class_name":"InputLayer","config":{"batch_input_shape":[null,10],"dtype":"float32","sparse":false,"name":"input54"},"inbound_nodes":[]},{"name":"input55","class_name":"InputLayer","config":{"batch_input_shape":[null,10],"dtype":"float32","sparse":false,"name":"input55"},"inbound_nodes":[]},{"name":"input56","class_name":"InputLayer","config":{"batch_input_shape":[null,10],"dtype":"float32","sparse":false,"name":"input56"},"inbound_nodes":[]},{"name":"input57","class_name":"InputLayer","config":{"batch_input_shape":[null,10],"dtype":"float32","sparse":false,"name":"input57"},"inbound_nodes":[]},{"name":"input58","class_name":"InputLayer","config":{"batch_input_shape":[null,10],"dtype":"float32","sparse":false,"name":"input58"},"inbound_nodes":[]},{"name":"input59","class_name":"InputLayer","config":{"batch_input_shape":[null,10],"dtype":"float32","sparse":false,"name":"input59"},"inbound_nodes":[]},{"name":"input60","class_name":"InputLayer","config":{"batch_input_shape":[null,10],"dtype":"float32","sparse":false,"name":"input60"},"inbound_nodes":[]},{"name":"input61","class_name":"InputLayer","config":{"batch_input_shape":[null,10],"dtype":"float32","sparse":false,"name":"input61"},"inbound_nodes":[]},{"name":"input62","class_name":"InputLayer","config":{"batch_input_shape":[null,10],"dtype":"float32","sparse":false,"name":"input62"},"inbound_nodes":[]},{"name":"input63","class_name":"InputLayer","config":{"batch_input_shape":[null,10],"dtype":"float32","sparse":false,"name":"input63"},"inbound_nodes":[]},{"name":"input64","class_name":"InputLayer","config":{"batch_input_shape":[null,10],"dtype":"float32","sparse":false,"name":"input64"},"inbound_nodes":[]},{"name":"input65","class_name":"InputLayer","config":{"batch_input_shape":[null,10],"dtype":"float32","sparse":false,"name":"input65"},"inbound_nodes":[]},{"name":"input66","class_name":"InputLayer","config":{"batch_input_shape":[null,10],"dtype":"float32","sparse":false,"name":"input66"},"inbound_nodes":[]},{"name":"input67","class_name":"InputLayer","config":{"batch_input_shape":[null,10],"dtype":"float32","sparse":false,"name":"input67"},"inbound_nodes":[]},{"name":"input68","class_name":"InputLayer","config":{"batch_input_shape":[null,10],"dtype":"float32","sparse":false,"name":"input68"},"inbound_nodes":[]},{"name":"input69","class_name":"InputLayer","config":{"batch_input_shape":[null,10],"dtype":"float32","sparse":false,"name":"input69"},"inbound_nodes":[]},{"name":"input70","class_name":"InputLayer","config":{"batch_input_shape":[null,10],"dtype":"float32","sparse":false,"name":"input70"},"inbound_nodes":[]},{"name":"input71","class_name":"InputLayer","config":{"batch_input_shape":[null,10],"dtype":"float32","sparse":false,"name":"input71"},"inbound_nodes":[]},{"name":"input72","class_name":"InputLayer","config":{"batch_input_shape":[null,10],"dtype":"float32","sparse":false,"name":"input72"},"inbound_nodes":[]},{"name":"input73","class_name":"InputLayer","config":{"batch_input_shape":[null,10],"dtype":"float32","sparse":false,"name":"input73"},"inbound_nodes":[]},{"name":"input74","class_name":"InputLayer","config":{"batch_input_shape":[null,10],"dtype":"float32","sparse":false,"name":"input74"},"inbound_nodes":[]},{"name":"input75","class_name":"InputLayer","config":{"batch_input_shape":[null,10],"dtype":"float32","sparse":false,"name":"input75"},"inbound_nodes":[]},{"name":"input76","class_name":"InputLayer","config":{"batch_input_shape":[null,10],"dtype":"float32","sparse":false,"name":"input76"},"inbound_nodes":[]},{"name":"input77","class_name":"InputLayer","config":{"batch_input_shape":[null,10],"dtype":"float32","sparse":false,"name":"input77"},"inbound_nodes":[]},{"name":"input78","class_name":"InputLayer","config":{"batch_input_shape":[null,10],"dtype":"float32","sparse":false,"name":"input78"},"inbound_nodes":[]},{"name":"input79","class_name":"InputLayer","config":{"batch_input_shape":[null,10],"dtype":"float32","sparse":false,"name":"input79"},"inbound_nodes":[]},{"name":"input80","class_name":"InputLayer","config":{"batch_input_shape":[null,10],"dtype":"float32","sparse":false,"name":"input80"},"inbound_nodes":[]},{"name":"input81","class_name":"InputLayer","config":{"batch_input_shape":[null,10],"dtype":"float32","sparse":false,"name":"input81"},"inbound_nodes":[]},{"name":"input82","class_name":"InputLayer","config":{"batch_input_shape":[null,10],"dtype":"float32","sparse":false,"name":"input82"},"inbound_nodes":[]},{"name":"input83","class_name":"InputLayer","config":{"batch_input_shape":[null,10],"dtype":"float32","sparse":false,"name":"input83"},"inbound_nodes":[]},{"name":"input84","class_name":"InputLayer","config":{"batch_input_shape":[null,10],"dtype":"float32","sparse":false,"name":"input84"},"inbound_nodes":[]},{"name":"input85","class_name":"InputLayer","config":{"batch_input_shape":[null,10],"dtype":"float32","sparse":false,"name":"input85"},"inbound_nodes":[]},{"name":"input86","class_name":"InputLayer","config":{"batch_input_shape":[null,10],"dtype":"float32","sparse":false,"name":"input86"},"inbound_nodes":[]},{"name":"input87","class_name":"InputLayer","config":{"batch_input_shape":[null,10],"dtype":"float32","sparse":false,"name":"input87"},"inbound_nodes":[]},{"name":"input88","class_name":"InputLayer","config":{"batch_input_shape":[null,10],"dtype":"float32","sparse":false,"name":"input88"},"inbound_nodes":[]},{"name":"input89","class_name":"InputLayer","config":{"batch_input_shape":[null,10],"dtype":"float32","sparse":false,"name":"input89"},"inbound_nodes":[]},{"name":"input90","class_name":"InputLayer","config":{"batch_input_shape":[null,10],"dtype":"float32","sparse":false,"name":"input90"},"inbound_nodes":[]},{"name":"input91","class_name":"InputLayer","config":{"batch_input_shape":[null,10],"dtype":"float32","sparse":false,"name":"input91"},"inbound_nodes":[]},{"name":"input92","class_name":"InputLayer","config":{"batch_input_shape":[null,10],"dtype":"float32","sparse":false,"name":"input92"},"inbound_nodes":[]},{"name":"input93","class_name":"InputLayer","config":{"batch_input_shape":[null,10],"dtype":"float32","sparse":false,"name":"input93"},"inbound_nodes":[]},{"name":"input94","class_name":"InputLayer","config":{"batch_input_shape":[null,10],"dtype":"float32","sparse":false,"name":"input94"},"inbound_nodes":[]},{"name":"input95","class_name":"InputLayer","config":{"batch_input_shape":[null,10],"dtype":"float32","sparse":false,"name":"input95"},"inbound_nodes":[]},{"name":"input96","class_name":"InputLayer","config":{"batch_input_shape":[null,10],"dtype":"float32","sparse":false,"name":"input96"},"inbound_nodes":[]},{"name":"input97","class_name":"InputLayer","config":{"batch_input_shape":[null,10],"dtype":"float32","sparse":false,"name":"input97"},"inbound_nodes":[]},{"name":"input98","class_name":"InputLayer","config":{"batch_input_shape":[null,10],"dtype":"float32","sparse":false,"name":"input98"},"inbound_nodes":[]},{"name":"input99","class_name":"InputLayer","config":{"batch_input_shape":[null,10],"dtype":"float32","sparse":false,"name":"input99"},"inbound_nodes":[]},{"name":"input100","class_name":"InputLayer","config":{"batch_input_shape":[null,10],"dtype":"float32","sparse":false,"name":"input100"},"inbound_nodes":[]},{"name":"Megan_Fox","class_name":"Dense","config":{"units":136,"activation":"linear","use_bias":true,"kernel_initializer":{"class_name":"VarianceScaling","config":{"scale":1,"mode":"fan_avg","distribution":"normal","seed":null}},"bias_initializer":{"class_name":"Zeros","config":{}},"kernel_regularizer":null,"bias_regularizer":null,"activity_regularizer":null,"kernel_constraint":null,"bias_constraint":null,"name":"Megan_Fox","trainable":true},"inbound_nodes":[[["input1",0,0,{}]]]},{"name":"Mila_Kunis","class_name":"Dense","config":{"units":136,"activation":"linear","use_bias":true,"kernel_initializer":{"class_name":"VarianceScaling","config":{"scale":1,"mode":"fan_avg","distribution":"normal","seed":null}},"bias_initializer":{"class_name":"Zeros","config":{}},"kernel_regularizer":null,"bias_regularizer":null,"activity_regularizer":null,"kernel_constraint":null,"bias_constraint":null,"name":"Mila_Kunis","trainable":true},"inbound_nodes":[[["input2",0,0,{}]]]},{"name":"Amanda_Seyfried","class_name":"Dense","config":{"units":136,"activation":"linear","use_bias":true,"kernel_initializer":{"class_name":"VarianceScaling","config":{"scale":1,"mode":"fan_avg","distribution":"normal","seed":null}},"bias_initializer":{"class_name":"Zeros","config":{}},"kernel_regularizer":null,"bias_regularizer":null,"activity_regularizer":null,"kernel_constraint":null,"bias_constraint":null,"name":"Amanda_Seyfried","trainable":true},"inbound_nodes":[[["input3",0,0,{}]]]},{"name":"Hayden_Panettiere","class_name":"Dense","config":{"units":136,"activation":"linear","use_bias":true,"kernel_initializer":{"class_name":"VarianceScaling","config":{"scale":1,"mode":"fan_avg","distribution":"normal","seed":null}},"bias_initializer":{"class_name":"Zeros","config":{}},"kernel_regularizer":null,"bias_regularizer":null,"activity_regularizer":null,"kernel_constraint":null,"bias_constraint":null,"name":"Hayden_Panettiere","trainable":true},"inbound_nodes":[[["input4",0,0,{}]]]},{"name":"Missy_Peregrym","class_name":"Dense","config":{"units":136,"activation":"linear","use_bias":true,"kernel_initializer":{"class_name":"VarianceScaling","config":{"scale":1,"mode":"fan_avg","distribution":"normal","seed":null}},"bias_initializer":{"class_name":"Zeros","config":{}},"kernel_regularizer":null,"bias_regularizer":null,"activity_regularizer":null,"kernel_constraint":null,"bias_constraint":null,"name":"Missy_Peregrym","trainable":true},"inbound_nodes":[[["input5",0,0,{}]]]},{"name":"Rachel_McAdams","class_name":"Dense","config":{"units":136,"activation":"linear","use_bias":true,"kernel_initializer":{"class_name":"VarianceScaling","config":{"scale":1,"mode":"fan_avg","distribution":"normal","seed":null}},"bias_initializer":{"class_name":"Zeros","config":{}},"kernel_regularizer":null,"bias_regularizer":null,"activity_regularizer":null,"kernel_constraint":null,"bias_constraint":null,"name":"Rachel_McAdams","trainable":true},"inbound_nodes":[[["input6",0,0,{}]]]},{"name":"Zoya_Afroz","class_name":"Dense","config":{"units":136,"activation":"linear","use_bias":true,"kernel_initializer":{"class_name":"VarianceScaling","config":{"scale":1,"mode":"fan_avg","distribution":"normal","seed":null}},"bias_initializer":{"class_name":"Zeros","config":{}},"kernel_regularizer":null,"bias_regularizer":null,"activity_regularizer":null,"kernel_constraint":null,"bias_constraint":null,"name":"Zoya_Afroz","trainable":true},"inbound_nodes":[[["input7",0,0,{}]]]},{"name":"Natalie_Portman","class_name":"Dense","config":{"units":136,"activation":"linear","use_bias":true,"kernel_initializer":{"class_name":"VarianceScaling","config":{"scale":1,"mode":"fan_avg","distribution":"normal","seed":null}},"bias_initializer":{"class_name":"Zeros","config":{}},"kernel_regularizer":null,"bias_regularizer":null,"activity_regularizer":null,"kernel_constraint":null,"bias_constraint":null,"name":"Natalie_Portman","trainable":true},"inbound_nodes":[[["input8",0,0,{}]]]},{"name":"Lyrica_Okano","class_name":"Dense","config":{"units":136,"activation":"linear","use_bias":true,"kernel_initializer":{"class_name":"VarianceScaling","config":{"scale":1,"mode":"fan_avg","distribution":"normal","seed":null}},"bias_initializer":{"class_name":"Zeros","config":{}},"kernel_regularizer":null,"bias_regularizer":null,"activity_regularizer":null,"kernel_constraint":null,"bias_constraint":null,"name":"Lyrica_Okano","trainable":true},"inbound_nodes":[[["input9",0,0,{}]]]},{"name":"Jennifer_Connelly","class_name":"Dense","config":{"units":136,"activation":"linear","use_bias":true,"kernel_initializer":{"class_name":"VarianceScaling","config":{"scale":1,"mode":"fan_avg","distribution":"normal","seed":null}},"bias_initializer":{"class_name":"Zeros","config":{}},"kernel_regularizer":null,"bias_regularizer":null,"activity_regularizer":null,"kernel_constraint":null,"bias_constraint":null,"name":"Jennifer_Connelly","trainable":true},"inbound_nodes":[[["input10",0,0,{}]]]},{"name":"Malin_Akerman","class_name":"Dense","config":{"units":136,"activation":"linear","use_bias":true,"kernel_initializer":{"class_name":"VarianceScaling","config":{"scale":1,"mode":"fan_avg","distribution":"normal","seed":null}},"bias_initializer":{"class_name":"Zeros","config":{}},"kernel_regularizer":null,"bias_regularizer":null,"activity_regularizer":null,"kernel_constraint":null,"bias_constraint":null,"name":"Malin_Akerman","trainable":true},"inbound_nodes":[[["input11",0,0,{}]]]},{"name":"Priyanka_Chopra","class_name":"Dense","config":{"units":136,"activation":"linear","use_bias":true,"kernel_initializer":{"class_name":"VarianceScaling","config":{"scale":1,"mode":"fan_avg","distribution":"normal","seed":null}},"bias_initializer":{"class_name":"Zeros","config":{}},"kernel_regularizer":null,"bias_regularizer":null,"activity_regularizer":null,"kernel_constraint":null,"bias_constraint":null,"name":"Priyanka_Chopra","trainable":true},"inbound_nodes":[[["input12",0,0,{}]]]},{"name":"Lyndsy_Fonseca","class_name":"Dense","config":{"units":136,"activation":"linear","use_bias":true,"kernel_initializer":{"class_name":"VarianceScaling","config":{"scale":1,"mode":"fan_avg","distribution":"normal","seed":null}},"bias_initializer":{"class_name":"Zeros","config":{}},"kernel_regularizer":null,"bias_regularizer":null,"activity_regularizer":null,"kernel_constraint":null,"bias_constraint":null,"name":"Lyndsy_Fonseca","trainable":true},"inbound_nodes":[[["input13",0,0,{}]]]},{"name":"Scarlett_Johansson","class_name":"Dense","config":{"units":136,"activation":"linear","use_bias":true,"kernel_initializer":{"class_name":"VarianceScaling","config":{"scale":1,"mode":"fan_avg","distribution":"normal","seed":null}},"bias_initializer":{"class_name":"Zeros","config":{}},"kernel_regularizer":null,"bias_regularizer":null,"activity_regularizer":null,"kernel_constraint":null,"bias_constraint":null,"name":"Scarlett_Johansson","trainable":true},"inbound_nodes":[[["input14",0,0,{}]]]},{"name":"Tamanna_Bhatia","class_name":"Dense","config":{"units":136,"activation":"linear","use_bias":true,"kernel_initializer":{"class_name":"VarianceScaling","config":{"scale":1,"mode":"fan_avg","distribution":"normal","seed":null}},"bias_initializer":{"class_name":"Zeros","config":{}},"kernel_regularizer":null,"bias_regularizer":null,"activity_regularizer":null,"kernel_constraint":null,"bias_constraint":null,"name":"Tamanna_Bhatia","trainable":true},"inbound_nodes":[[["input15",0,0,{}]]]},{"name":"Lana_Parrilla","class_name":"Dense","config":{"units":136,"activation":"linear","use_bias":true,"kernel_initializer":{"class_name":"VarianceScaling","config":{"scale":1,"mode":"fan_avg","distribution":"normal","seed":null}},"bias_initializer":{"class_name":"Zeros","config":{}},"kernel_regularizer":null,"bias_regularizer":null,"activity_regularizer":null,"kernel_constraint":null,"bias_constraint":null,"name":"Lana_Parrilla","trainable":true},"inbound_nodes":[[["input16",0,0,{}]]]},{"name":"Emma_Stone","class_name":"Dense","config":{"units":136,"activation":"linear","use_bias":true,"kernel_initializer":{"class_name":"VarianceScaling","config":{"scale":1,"mode":"fan_avg","distribution":"normal","seed":null}},"bias_initializer":{"class_name":"Zeros","config":{}},"kernel_regularizer":null,"bias_regularizer":null,"activity_regularizer":null,"kernel_constraint":null,"bias_constraint":null,"name":"Emma_Stone","trainable":true},"inbound_nodes":[[["input17",0,0,{}]]]},{"name":"Jessica_Alba","class_name":"Dense","config":{"units":136,"activation":"linear","use_bias":true,"kernel_initializer":{"class_name":"VarianceScaling","config":{"scale":1,"mode":"fan_avg","distribution":"normal","seed":null}},"bias_initializer":{"class_name":"Zeros","config":{}},"kernel_regularizer":null,"bias_regularizer":null,"activity_regularizer":null,"kernel_constraint":null,"bias_constraint":null,"name":"Jessica_Alba","trainable":true},"inbound_nodes":[[["input18",0,0,{}]]]},{"name":"Bethany_Joy_Lenz","class_name":"Dense","config":{"units":136,"activation":"linear","use_bias":true,"kernel_initializer":{"class_name":"VarianceScaling","config":{"scale":1,"mode":"fan_avg","distribution":"normal","seed":null}},"bias_initializer":{"class_name":"Zeros","config":{}},"kernel_regularizer":null,"bias_regularizer":null,"activity_regularizer":null,"kernel_constraint":null,"bias_constraint":null,"name":"Bethany_Joy_Lenz","trainable":true},"inbound_nodes":[[["input19",0,0,{}]]]},{"name":"Ellen_Page","class_name":"Dense","config":{"units":136,"activation":"linear","use_bias":true,"kernel_initializer":{"class_name":"VarianceScaling","config":{"scale":1,"mode":"fan_avg","distribution":"normal","seed":null}},"bias_initializer":{"class_name":"Zeros","config":{}},"kernel_regularizer":null,"bias_regularizer":null,"activity_regularizer":null,"kernel_constraint":null,"bias_constraint":null,"name":"Ellen_Page","trainable":true},"inbound_nodes":[[["input20",0,0,{}]]]},{"name":"Kate_Beckinsale","class_name":"Dense","config":{"units":136,"activation":"linear","use_bias":true,"kernel_initializer":{"class_name":"VarianceScaling","config":{"scale":1,"mode":"fan_avg","distribution":"normal","seed":null}},"bias_initializer":{"class_name":"Zeros","config":{}},"kernel_regularizer":null,"bias_regularizer":null,"activity_regularizer":null,"kernel_constraint":null,"bias_constraint":null,"name":"Kate_Beckinsale","trainable":true},"inbound_nodes":[[["input21",0,0,{}]]]},{"name":"Diane_Kruger","class_name":"Dense","config":{"units":136,"activation":"linear","use_bias":true,"kernel_initializer":{"class_name":"VarianceScaling","config":{"scale":1,"mode":"fan_avg","distribution":"normal","seed":null}},"bias_initializer":{"class_name":"Zeros","config":{}},"kernel_regularizer":null,"bias_regularizer":null,"activity_regularizer":null,"kernel_constraint":null,"bias_constraint":null,"name":"Diane_Kruger","trainable":true},"inbound_nodes":[[["input22",0,0,{}]]]},{"name":"Rihanna","class_name":"Dense","config":{"units":136,"activation":"linear","use_bias":true,"kernel_initializer":{"class_name":"VarianceScaling","config":{"scale":1,"mode":"fan_avg","distribution":"normal","seed":null}},"bias_initializer":{"class_name":"Zeros","config":{}},"kernel_regularizer":null,"bias_regularizer":null,"activity_regularizer":null,"kernel_constraint":null,"bias_constraint":null,"name":"Rihanna","trainable":true},"inbound_nodes":[[["input23",0,0,{}]]]},{"name":"Rachel_Bilson","class_name":"Dense","config":{"units":136,"activation":"linear","use_bias":true,"kernel_initializer":{"class_name":"VarianceScaling","config":{"scale":1,"mode":"fan_avg","distribution":"normal","seed":null}},"bias_initializer":{"class_name":"Zeros","config":{}},"kernel_regularizer":null,"bias_regularizer":null,"activity_regularizer":null,"kernel_constraint":null,"bias_constraint":null,"name":"Rachel_Bilson","trainable":true},"inbound_nodes":[[["input24",0,0,{}]]]},{"name":"Drew_Barrymore","class_name":"Dense","config":{"units":136,"activation":"linear","use_bias":true,"kernel_initializer":{"class_name":"VarianceScaling","config":{"scale":1,"mode":"fan_avg","distribution":"normal","seed":null}},"bias_initializer":{"class_name":"Zeros","config":{}},"kernel_regularizer":null,"bias_regularizer":null,"activity_regularizer":null,"kernel_constraint":null,"bias_constraint":null,"name":"Drew_Barrymore","trainable":true},"inbound_nodes":[[["input25",0,0,{}]]]},{"name":"Taylor_Swift","class_name":"Dense","config":{"units":136,"activation":"linear","use_bias":true,"kernel_initializer":{"class_name":"VarianceScaling","config":{"scale":1,"mode":"fan_avg","distribution":"normal","seed":null}},"bias_initializer":{"class_name":"Zeros","config":{}},"kernel_regularizer":null,"bias_regularizer":null,"activity_regularizer":null,"kernel_constraint":null,"bias_constraint":null,"name":"Taylor_Swift","trainable":true},"inbound_nodes":[[["input26",0,0,{}]]]},{"name":"Alison_Lohman","class_name":"Dense","config":{"units":136,"activation":"linear","use_bias":true,"kernel_initializer":{"class_name":"VarianceScaling","config":{"scale":1,"mode":"fan_avg","distribution":"normal","seed":null}},"bias_initializer":{"class_name":"Zeros","config":{}},"kernel_regularizer":null,"bias_regularizer":null,"activity_regularizer":null,"kernel_constraint":null,"bias_constraint":null,"name":"Alison_Lohman","trainable":true},"inbound_nodes":[[["input27",0,0,{}]]]},{"name":"Angelina_Jolie","class_name":"Dense","config":{"units":136,"activation":"linear","use_bias":true,"kernel_initializer":{"class_name":"VarianceScaling","config":{"scale":1,"mode":"fan_avg","distribution":"normal","seed":null}},"bias_initializer":{"class_name":"Zeros","config":{}},"kernel_regularizer":null,"bias_regularizer":null,"activity_regularizer":null,"kernel_constraint":null,"bias_constraint":null,"name":"Angelina_Jolie","trainable":true},"inbound_nodes":[[["input28",0,0,{}]]]},{"name":"Nadine_Njeim","class_name":"Dense","config":{"units":136,"activation":"linear","use_bias":true,"kernel_initializer":{"class_name":"VarianceScaling","config":{"scale":1,"mode":"fan_avg","distribution":"normal","seed":null}},"bias_initializer":{"class_name":"Zeros","config":{}},"kernel_regularizer":null,"bias_regularizer":null,"activity_regularizer":null,"kernel_constraint":null,"bias_constraint":null,"name":"Nadine_Njeim","trainable":true},"inbound_nodes":[[["input29",0,0,{}]]]},{"name":"Ashley_Greene","class_name":"Dense","config":{"units":136,"activation":"linear","use_bias":true,"kernel_initializer":{"class_name":"VarianceScaling","config":{"scale":1,"mode":"fan_avg","distribution":"normal","seed":null}},"bias_initializer":{"class_name":"Zeros","config":{}},"kernel_regularizer":null,"bias_regularizer":null,"activity_regularizer":null,"kernel_constraint":null,"bias_constraint":null,"name":"Ashley_Greene","trainable":true},"inbound_nodes":[[["input30",0,0,{}]]]},{"name":"Jessica_Stroup","class_name":"Dense","config":{"units":136,"activation":"linear","use_bias":true,"kernel_initializer":{"class_name":"VarianceScaling","config":{"scale":1,"mode":"fan_avg","distribution":"normal","seed":null}},"bias_initializer":{"class_name":"Zeros","config":{}},"kernel_regularizer":null,"bias_regularizer":null,"activity_regularizer":null,"kernel_constraint":null,"bias_constraint":null,"name":"Jessica_Stroup","trainable":true},"inbound_nodes":[[["input31",0,0,{}]]]},{"name":"Selena_Gomez","class_name":"Dense","config":{"units":136,"activation":"linear","use_bias":true,"kernel_initializer":{"class_name":"VarianceScaling","config":{"scale":1,"mode":"fan_avg","distribution":"normal","seed":null}},"bias_initializer":{"class_name":"Zeros","config":{}},"kernel_regularizer":null,"bias_regularizer":null,"activity_regularizer":null,"kernel_constraint":null,"bias_constraint":null,"name":"Selena_Gomez","trainable":true},"inbound_nodes":[[["input32",0,0,{}]]]},{"name":"Leighton_Meester","class_name":"Dense","config":{"units":136,"activation":"linear","use_bias":true,"kernel_initializer":{"class_name":"VarianceScaling","config":{"scale":1,"mode":"fan_avg","distribution":"normal","seed":null}},"bias_initializer":{"class_name":"Zeros","config":{}},"kernel_regularizer":null,"bias_regularizer":null,"activity_regularizer":null,"kernel_constraint":null,"bias_constraint":null,"name":"Leighton_Meester","trainable":true},"inbound_nodes":[[["input33",0,0,{}]]]},{"name":"Kylie_Jenner","class_name":"Dense","config":{"units":136,"activation":"linear","use_bias":true,"kernel_initializer":{"class_name":"VarianceScaling","config":{"scale":1,"mode":"fan_avg","distribution":"normal","seed":null}},"bias_initializer":{"class_name":"Zeros","config":{}},"kernel_regularizer":null,"bias_regularizer":null,"activity_regularizer":null,"kernel_constraint":null,"bias_constraint":null,"name":"Kylie_Jenner","trainable":true},"inbound_nodes":[[["input34",0,0,{}]]]},{"name":"Nikki_Reed","class_name":"Dense","config":{"units":136,"activation":"linear","use_bias":true,"kernel_initializer":{"class_name":"VarianceScaling","config":{"scale":1,"mode":"fan_avg","distribution":"normal","seed":null}},"bias_initializer":{"class_name":"Zeros","config":{}},"kernel_regularizer":null,"bias_regularizer":null,"activity_regularizer":null,"kernel_constraint":null,"bias_constraint":null,"name":"Nikki_Reed","trainable":true},"inbound_nodes":[[["input35",0,0,{}]]]},{"name":"Beyonce","class_name":"Dense","config":{"units":136,"activation":"linear","use_bias":true,"kernel_initializer":{"class_name":"VarianceScaling","config":{"scale":1,"mode":"fan_avg","distribution":"normal","seed":null}},"bias_initializer":{"class_name":"Zeros","config":{}},"kernel_regularizer":null,"bias_regularizer":null,"activity_regularizer":null,"kernel_constraint":null,"bias_constraint":null,"name":"Beyonce","trainable":true},"inbound_nodes":[[["input36",0,0,{}]]]},{"name":"Emma_Watson","class_name":"Dense","config":{"units":136,"activation":"linear","use_bias":true,"kernel_initializer":{"class_name":"VarianceScaling","config":{"scale":1,"mode":"fan_avg","distribution":"normal","seed":null}},"bias_initializer":{"class_name":"Zeros","config":{}},"kernel_regularizer":null,"bias_regularizer":null,"activity_regularizer":null,"kernel_constraint":null,"bias_constraint":null,"name":"Emma_Watson","trainable":true},"inbound_nodes":[[["input37",0,0,{}]]]},{"name":"Eva_Green","class_name":"Dense","config":{"units":136,"activation":"linear","use_bias":true,"kernel_initializer":{"class_name":"VarianceScaling","config":{"scale":1,"mode":"fan_avg","distribution":"normal","seed":null}},"bias_initializer":{"class_name":"Zeros","config":{}},"kernel_regularizer":null,"bias_regularizer":null,"activity_regularizer":null,"kernel_constraint":null,"bias_constraint":null,"name":"Eva_Green","trainable":true},"inbound_nodes":[[["input38",0,0,{}]]]},{"name":"Cobie_Smulders","class_name":"Dense","config":{"units":136,"activation":"linear","use_bias":true,"kernel_initializer":{"class_name":"VarianceScaling","config":{"scale":1,"mode":"fan_avg","distribution":"normal","seed":null}},"bias_initializer":{"class_name":"Zeros","config":{}},"kernel_regularizer":null,"bias_regularizer":null,"activity_regularizer":null,"kernel_constraint":null,"bias_constraint":null,"name":"Cobie_Smulders","trainable":true},"inbound_nodes":[[["input39",0,0,{}]]]},{"name":"Zooey_Deschanel","class_name":"Dense","config":{"units":136,"activation":"linear","use_bias":true,"kernel_initializer":{"class_name":"VarianceScaling","config":{"scale":1,"mode":"fan_avg","distribution":"normal","seed":null}},"bias_initializer":{"class_name":"Zeros","config":{}},"kernel_regularizer":null,"bias_regularizer":null,"activity_regularizer":null,"kernel_constraint":null,"bias_constraint":null,"name":"Zooey_Deschanel","trainable":true},"inbound_nodes":[[["input40",0,0,{}]]]},{"name":"Emily_Blunt","class_name":"Dense","config":{"units":136,"activation":"linear","use_bias":true,"kernel_initializer":{"class_name":"VarianceScaling","config":{"scale":1,"mode":"fan_avg","distribution":"normal","seed":null}},"bias_initializer":{"class_name":"Zeros","config":{}},"kernel_regularizer":null,"bias_regularizer":null,"activity_regularizer":null,"kernel_constraint":null,"bias_constraint":null,"name":"Emily_Blunt","trainable":true},"inbound_nodes":[[["input41",0,0,{}]]]},{"name":"Kathryn_Prescott","class_name":"Dense","config":{"units":136,"activation":"linear","use_bias":true,"kernel_initializer":{"class_name":"VarianceScaling","config":{"scale":1,"mode":"fan_avg","distribution":"normal","seed":null}},"bias_initializer":{"class_name":"Zeros","config":{}},"kernel_regularizer":null,"bias_regularizer":null,"activity_regularizer":null,"kernel_constraint":null,"bias_constraint":null,"name":"Kathryn_Prescott","trainable":true},"inbound_nodes":[[["input42",0,0,{}]]]},{"name":"Katherine_Heigl","class_name":"Dense","config":{"units":136,"activation":"linear","use_bias":true,"kernel_initializer":{"class_name":"VarianceScaling","config":{"scale":1,"mode":"fan_avg","distribution":"normal","seed":null}},"bias_initializer":{"class_name":"Zeros","config":{}},"kernel_regularizer":null,"bias_regularizer":null,"activity_regularizer":null,"kernel_constraint":null,"bias_constraint":null,"name":"Katherine_Heigl","trainable":true},"inbound_nodes":[[["input43",0,0,{}]]]},{"name":"Ashley_Benson","class_name":"Dense","config":{"units":136,"activation":"linear","use_bias":true,"kernel_initializer":{"class_name":"VarianceScaling","config":{"scale":1,"mode":"fan_avg","distribution":"normal","seed":null}},"bias_initializer":{"class_name":"Zeros","config":{}},"kernel_regularizer":null,"bias_regularizer":null,"activity_regularizer":null,"kernel_constraint":null,"bias_constraint":null,"name":"Ashley_Benson","trainable":true},"inbound_nodes":[[["input44",0,0,{}]]]},{"name":"Hilarie_Burton","class_name":"Dense","config":{"units":136,"activation":"linear","use_bias":true,"kernel_initializer":{"class_name":"VarianceScaling","config":{"scale":1,"mode":"fan_avg","distribution":"normal","seed":null}},"bias_initializer":{"class_name":"Zeros","config":{}},"kernel_regularizer":null,"bias_regularizer":null,"activity_regularizer":null,"kernel_constraint":null,"bias_constraint":null,"name":"Hilarie_Burton","trainable":true},"inbound_nodes":[[["input45",0,0,{}]]]},{"name":"Alexis_Bledel","class_name":"Dense","config":{"units":136,"activation":"linear","use_bias":true,"kernel_initializer":{"class_name":"VarianceScaling","config":{"scale":1,"mode":"fan_avg","distribution":"normal","seed":null}},"bias_initializer":{"class_name":"Zeros","config":{}},"kernel_regularizer":null,"bias_regularizer":null,"activity_regularizer":null,"kernel_constraint":null,"bias_constraint":null,"name":"Alexis_Bledel","trainable":true},"inbound_nodes":[[["input46",0,0,{}]]]},{"name":"Rosario_Dawson","class_name":"Dense","config":{"units":136,"activation":"linear","use_bias":true,"kernel_initializer":{"class_name":"VarianceScaling","config":{"scale":1,"mode":"fan_avg","distribution":"normal","seed":null}},"bias_initializer":{"class_name":"Zeros","config":{}},"kernel_regularizer":null,"bias_regularizer":null,"activity_regularizer":null,"kernel_constraint":null,"bias_constraint":null,"name":"Rosario_Dawson","trainable":true},"inbound_nodes":[[["input47",0,0,{}]]]},{"name":"Kate_Walsh","class_name":"Dense","config":{"units":136,"activation":"linear","use_bias":true,"kernel_initializer":{"class_name":"VarianceScaling","config":{"scale":1,"mode":"fan_avg","distribution":"normal","seed":null}},"bias_initializer":{"class_name":"Zeros","config":{}},"kernel_regularizer":null,"bias_regularizer":null,"activity_regularizer":null,"kernel_constraint":null,"bias_constraint":null,"name":"Kate_Walsh","trainable":true},"inbound_nodes":[[["input48",0,0,{}]]]},{"name":"Claire_Danes","class_name":"Dense","config":{"units":136,"activation":"linear","use_bias":true,"kernel_initializer":{"class_name":"VarianceScaling","config":{"scale":1,"mode":"fan_avg","distribution":"normal","seed":null}},"bias_initializer":{"class_name":"Zeros","config":{}},"kernel_regularizer":null,"bias_regularizer":null,"activity_regularizer":null,"kernel_constraint":null,"bias_constraint":null,"name":"Claire_Danes","trainable":true},"inbound_nodes":[[["input49",0,0,{}]]]},{"name":"Sienna_Miller","class_name":"Dense","config":{"units":136,"activation":"linear","use_bias":true,"kernel_initializer":{"class_name":"VarianceScaling","config":{"scale":1,"mode":"fan_avg","distribution":"normal","seed":null}},"bias_initializer":{"class_name":"Zeros","config":{}},"kernel_regularizer":null,"bias_regularizer":null,"activity_regularizer":null,"kernel_constraint":null,"bias_constraint":null,"name":"Sienna_Miller","trainable":true},"inbound_nodes":[[["input50",0,0,{}]]]},{"name":"Shannyn_Sossamon","class_name":"Dense","config":{"units":136,"activation":"linear","use_bias":true,"kernel_initializer":{"class_name":"VarianceScaling","config":{"scale":1,"mode":"fan_avg","distribution":"normal","seed":null}},"bias_initializer":{"class_name":"Zeros","config":{}},"kernel_regularizer":null,"bias_regularizer":null,"activity_regularizer":null,"kernel_constraint":null,"bias_constraint":null,"name":"Shannyn_Sossamon","trainable":true},"inbound_nodes":[[["input51",0,0,{}]]]},{"name":"Fan_Bingbing","class_name":"Dense","config":{"units":136,"activation":"linear","use_bias":true,"kernel_initializer":{"class_name":"VarianceScaling","config":{"scale":1,"mode":"fan_avg","distribution":"normal","seed":null}},"bias_initializer":{"class_name":"Zeros","config":{}},"kernel_regularizer":null,"bias_regularizer":null,"activity_regularizer":null,"kernel_constraint":null,"bias_constraint":null,"name":"Fan_Bingbing","trainable":true},"inbound_nodes":[[["input52",0,0,{}]]]},{"name":"Piper_Perabo","class_name":"Dense","config":{"units":136,"activation":"linear","use_bias":true,"kernel_initializer":{"class_name":"VarianceScaling","config":{"scale":1,"mode":"fan_avg","distribution":"normal","seed":null}},"bias_initializer":{"class_name":"Zeros","config":{}},"kernel_regularizer":null,"bias_regularizer":null,"activity_regularizer":null,"kernel_constraint":null,"bias_constraint":null,"name":"Piper_Perabo","trainable":true},"inbound_nodes":[[["input53",0,0,{}]]]},{"name":"Halla_Vilhjalmsdottir","class_name":"Dense","config":{"units":136,"activation":"linear","use_bias":true,"kernel_initializer":{"class_name":"VarianceScaling","config":{"scale":1,"mode":"fan_avg","distribution":"normal","seed":null}},"bias_initializer":{"class_name":"Zeros","config":{}},"kernel_regularizer":null,"bias_regularizer":null,"activity_regularizer":null,"kernel_constraint":null,"bias_constraint":null,"name":"Halla_Vilhjalmsdottir","trainable":true},"inbound_nodes":[[["input54",0,0,{}]]]},{"name":"Jordana_Brewster","class_name":"Dense","config":{"units":136,"activation":"linear","use_bias":true,"kernel_initializer":{"class_name":"VarianceScaling","config":{"scale":1,"mode":"fan_avg","distribution":"normal","seed":null}},"bias_initializer":{"class_name":"Zeros","config":{}},"kernel_regularizer":null,"bias_regularizer":null,"activity_regularizer":null,"kernel_constraint":null,"bias_constraint":null,"name":"Jordana_Brewster","trainable":true},"inbound_nodes":[[["input55",0,0,{}]]]},{"name":"Samaire_Armstrong","class_name":"Dense","config":{"units":136,"activation":"linear","use_bias":true,"kernel_initializer":{"class_name":"VarianceScaling","config":{"scale":1,"mode":"fan_avg","distribution":"normal","seed":null}},"bias_initializer":{"class_name":"Zeros","config":{}},"kernel_regularizer":null,"bias_regularizer":null,"activity_regularizer":null,"kernel_constraint":null,"bias_constraint":null,"name":"Samaire_Armstrong","trainable":true},"inbound_nodes":[[["input56",0,0,{}]]]},{"name":"Carey_Mulligan","class_name":"Dense","config":{"units":136,"activation":"linear","use_bias":true,"kernel_initializer":{"class_name":"VarianceScaling","config":{"scale":1,"mode":"fan_avg","distribution":"normal","seed":null}},"bias_initializer":{"class_name":"Zeros","config":{}},"kernel_regularizer":null,"bias_regularizer":null,"activity_regularizer":null,"kernel_constraint":null,"bias_constraint":null,"name":"Carey_Mulligan","trainable":true},"inbound_nodes":[[["input57",0,0,{}]]]},{"name":"Kate_Hudson","class_name":"Dense","config":{"units":136,"activation":"linear","use_bias":true,"kernel_initializer":{"class_name":"VarianceScaling","config":{"scale":1,"mode":"fan_avg","distribution":"normal","seed":null}},"bias_initializer":{"class_name":"Zeros","config":{}},"kernel_regularizer":null,"bias_regularizer":null,"activity_regularizer":null,"kernel_constraint":null,"bias_constraint":null,"name":"Kate_Hudson","trainable":true},"inbound_nodes":[[["input58",0,0,{}]]]},{"name":"Fahriye_Evcen","class_name":"Dense","config":{"units":136,"activation":"linear","use_bias":true,"kernel_initializer":{"class_name":"VarianceScaling","config":{"scale":1,"mode":"fan_avg","distribution":"normal","seed":null}},"bias_initializer":{"class_name":"Zeros","config":{}},"kernel_regularizer":null,"bias_regularizer":null,"activity_regularizer":null,"kernel_constraint":null,"bias_constraint":null,"name":"Fahriye_Evcen","trainable":true},"inbound_nodes":[[["input59",0,0,{}]]]},{"name":"Gemma_Arterton","class_name":"Dense","config":{"units":136,"activation":"linear","use_bias":true,"kernel_initializer":{"class_name":"VarianceScaling","config":{"scale":1,"mode":"fan_avg","distribution":"normal","seed":null}},"bias_initializer":{"class_name":"Zeros","config":{}},"kernel_regularizer":null,"bias_regularizer":null,"activity_regularizer":null,"kernel_constraint":null,"bias_constraint":null,"name":"Gemma_Arterton","trainable":true},"inbound_nodes":[[["input60",0,0,{}]]]},{"name":"Jennifer_Lopez","class_name":"Dense","config":{"units":136,"activation":"linear","use_bias":true,"kernel_initializer":{"class_name":"VarianceScaling","config":{"scale":1,"mode":"fan_avg","distribution":"normal","seed":null}},"bias_initializer":{"class_name":"Zeros","config":{}},"kernel_regularizer":null,"bias_regularizer":null,"activity_regularizer":null,"kernel_constraint":null,"bias_constraint":null,"name":"Jennifer_Lopez","trainable":true},"inbound_nodes":[[["input61",0,0,{}]]]},{"name":"Naya_Rivera","class_name":"Dense","config":{"units":136,"activation":"linear","use_bias":true,"kernel_initializer":{"class_name":"VarianceScaling","config":{"scale":1,"mode":"fan_avg","distribution":"normal","seed":null}},"bias_initializer":{"class_name":"Zeros","config":{}},"kernel_regularizer":null,"bias_regularizer":null,"activity_regularizer":null,"kernel_constraint":null,"bias_constraint":null,"name":"Naya_Rivera","trainable":true},"inbound_nodes":[[["input62",0,0,{}]]]},{"name":"Emma_Roberts","class_name":"Dense","config":{"units":136,"activation":"linear","use_bias":true,"kernel_initializer":{"class_name":"VarianceScaling","config":{"scale":1,"mode":"fan_avg","distribution":"normal","seed":null}},"bias_initializer":{"class_name":"Zeros","config":{}},"kernel_regularizer":null,"bias_regularizer":null,"activity_regularizer":null,"kernel_constraint":null,"bias_constraint":null,"name":"Emma_Roberts","trainable":true},"inbound_nodes":[[["input63",0,0,{}]]]},{"name":"Ariana_Grande","class_name":"Dense","config":{"units":136,"activation":"linear","use_bias":true,"kernel_initializer":{"class_name":"VarianceScaling","config":{"scale":1,"mode":"fan_avg","distribution":"normal","seed":null}},"bias_initializer":{"class_name":"Zeros","config":{}},"kernel_regularizer":null,"bias_regularizer":null,"activity_regularizer":null,"kernel_constraint":null,"bias_constraint":null,"name":"Ariana_Grande","trainable":true},"inbound_nodes":[[["input64",0,0,{}]]]},{"name":"Kate_Upton","class_name":"Dense","config":{"units":136,"activation":"linear","use_bias":true,"kernel_initializer":{"class_name":"VarianceScaling","config":{"scale":1,"mode":"fan_avg","distribution":"normal","seed":null}},"bias_initializer":{"class_name":"Zeros","config":{}},"kernel_regularizer":null,"bias_regularizer":null,"activity_regularizer":null,"kernel_constraint":null,"bias_constraint":null,"name":"Kate_Upton","trainable":true},"inbound_nodes":[[["input65",0,0,{}]]]},{"name":"Elle_Fanning","class_name":"Dense","config":{"units":136,"activation":"linear","use_bias":true,"kernel_initializer":{"class_name":"VarianceScaling","config":{"scale":1,"mode":"fan_avg","distribution":"normal","seed":null}},"bias_initializer":{"class_name":"Zeros","config":{}},"kernel_regularizer":null,"bias_regularizer":null,"activity_regularizer":null,"kernel_constraint":null,"bias_constraint":null,"name":"Elle_Fanning","trainable":true},"inbound_nodes":[[["input66",0,0,{}]]]},{"name":"Reese_Witherspoon","class_name":"Dense","config":{"units":136,"activation":"linear","use_bias":true,"kernel_initializer":{"class_name":"VarianceScaling","config":{"scale":1,"mode":"fan_avg","distribution":"normal","seed":null}},"bias_initializer":{"class_name":"Zeros","config":{}},"kernel_regularizer":null,"bias_regularizer":null,"activity_regularizer":null,"kernel_constraint":null,"bias_constraint":null,"name":"Reese_Witherspoon","trainable":true},"inbound_nodes":[[["input67",0,0,{}]]]},{"name":"Brittany_Snow","class_name":"Dense","config":{"units":136,"activation":"linear","use_bias":true,"kernel_initializer":{"class_name":"VarianceScaling","config":{"scale":1,"mode":"fan_avg","distribution":"normal","seed":null}},"bias_initializer":{"class_name":"Zeros","config":{}},"kernel_regularizer":null,"bias_regularizer":null,"activity_regularizer":null,"kernel_constraint":null,"bias_constraint":null,"name":"Brittany_Snow","trainable":true},"inbound_nodes":[[["input68",0,0,{}]]]},{"name":"Nina_Dobrev","class_name":"Dense","config":{"units":136,"activation":"linear","use_bias":true,"kernel_initializer":{"class_name":"VarianceScaling","config":{"scale":1,"mode":"fan_avg","distribution":"normal","seed":null}},"bias_initializer":{"class_name":"Zeros","config":{}},"kernel_regularizer":null,"bias_regularizer":null,"activity_regularizer":null,"kernel_constraint":null,"bias_constraint":null,"name":"Nina_Dobrev","trainable":true},"inbound_nodes":[[["input69",0,0,{}]]]},{"name":"Zoe_Saldana","class_name":"Dense","config":{"units":136,"activation":"linear","use_bias":true,"kernel_initializer":{"class_name":"VarianceScaling","config":{"scale":1,"mode":"fan_avg","distribution":"normal","seed":null}},"bias_initializer":{"class_name":"Zeros","config":{}},"kernel_regularizer":null,"bias_regularizer":null,"activity_regularizer":null,"kernel_constraint":null,"bias_constraint":null,"name":"Zoe_Saldana","trainable":true},"inbound_nodes":[[["input70",0,0,{}]]]},{"name":"Miranda_Kerr","class_name":"Dense","config":{"units":136,"activation":"linear","use_bias":true,"kernel_initializer":{"class_name":"VarianceScaling","config":{"scale":1,"mode":"fan_avg","distribution":"normal","seed":null}},"bias_initializer":{"class_name":"Zeros","config":{}},"kernel_regularizer":null,"bias_regularizer":null,"activity_regularizer":null,"kernel_constraint":null,"bias_constraint":null,"name":"Miranda_Kerr","trainable":true},"inbound_nodes":[[["input71",0,0,{}]]]},{"name":"Kelsey_Chow","class_name":"Dense","config":{"units":136,"activation":"linear","use_bias":true,"kernel_initializer":{"class_name":"VarianceScaling","config":{"scale":1,"mode":"fan_avg","distribution":"normal","seed":null}},"bias_initializer":{"class_name":"Zeros","config":{}},"kernel_regularizer":null,"bias_regularizer":null,"activity_regularizer":null,"kernel_constraint":null,"bias_constraint":null,"name":"Kelsey_Chow","trainable":true},"inbound_nodes":[[["input72",0,0,{}]]]},{"name":"Monica_Bellucci","class_name":"Dense","config":{"units":136,"activation":"linear","use_bias":true,"kernel_initializer":{"class_name":"VarianceScaling","config":{"scale":1,"mode":"fan_avg","distribution":"normal","seed":null}},"bias_initializer":{"class_name":"Zeros","config":{}},"kernel_regularizer":null,"bias_regularizer":null,"activity_regularizer":null,"kernel_constraint":null,"bias_constraint":null,"name":"Monica_Bellucci","trainable":true},"inbound_nodes":[[["input73",0,0,{}]]]},{"name":"Liza_Berggren","class_name":"Dense","config":{"units":136,"activation":"linear","use_bias":true,"kernel_initializer":{"class_name":"VarianceScaling","config":{"scale":1,"mode":"fan_avg","distribution":"normal","seed":null}},"bias_initializer":{"class_name":"Zeros","config":{}},"kernel_regularizer":null,"bias_regularizer":null,"activity_regularizer":null,"kernel_constraint":null,"bias_constraint":null,"name":"Liza_Berggren","trainable":true},"inbound_nodes":[[["input74",0,0,{}]]]},{"name":"Indiana_Evans","class_name":"Dense","config":{"units":136,"activation":"linear","use_bias":true,"kernel_initializer":{"class_name":"VarianceScaling","config":{"scale":1,"mode":"fan_avg","distribution":"normal","seed":null}},"bias_initializer":{"class_name":"Zeros","config":{}},"kernel_regularizer":null,"bias_regularizer":null,"activity_regularizer":null,"kernel_constraint":null,"bias_constraint":null,"name":"Indiana_Evans","trainable":true},"inbound_nodes":[[["input75",0,0,{}]]]},{"name":"Amber_Heard","class_name":"Dense","config":{"units":136,"activation":"linear","use_bias":true,"kernel_initializer":{"class_name":"VarianceScaling","config":{"scale":1,"mode":"fan_avg","distribution":"normal","seed":null}},"bias_initializer":{"class_name":"Zeros","config":{}},"kernel_regularizer":null,"bias_regularizer":null,"activity_regularizer":null,"kernel_constraint":null,"bias_constraint":null,"name":"Amber_Heard","trainable":true},"inbound_nodes":[[["input76",0,0,{}]]]},{"name":"Sharon_Stone","class_name":"Dense","config":{"units":136,"activation":"linear","use_bias":true,"kernel_initializer":{"class_name":"VarianceScaling","config":{"scale":1,"mode":"fan_avg","distribution":"normal","seed":null}},"bias_initializer":{"class_name":"Zeros","config":{}},"kernel_regularizer":null,"bias_regularizer":null,"activity_regularizer":null,"kernel_constraint":null,"bias_constraint":null,"name":"Sharon_Stone","trainable":true},"inbound_nodes":[[["input77",0,0,{}]]]},{"name":"Emina_Cunmulaj","class_name":"Dense","config":{"units":136,"activation":"linear","use_bias":true,"kernel_initializer":{"class_name":"VarianceScaling","config":{"scale":1,"mode":"fan_avg","distribution":"normal","seed":null}},"bias_initializer":{"class_name":"Zeros","config":{}},"kernel_regularizer":null,"bias_regularizer":null,"activity_regularizer":null,"kernel_constraint":null,"bias_constraint":null,"name":"Emina_Cunmulaj","trainable":true},"inbound_nodes":[[["input78",0,0,{}]]]},{"name":"Alicia_Keys","class_name":"Dense","config":{"units":136,"activation":"linear","use_bias":true,"kernel_initializer":{"class_name":"VarianceScaling","config":{"scale":1,"mode":"fan_avg","distribution":"normal","seed":null}},"bias_initializer":{"class_name":"Zeros","config":{}},"kernel_regularizer":null,"bias_regularizer":null,"activity_regularizer":null,"kernel_constraint":null,"bias_constraint":null,"name":"Alicia_Keys","trainable":true},"inbound_nodes":[[["input79",0,0,{}]]]},{"name":"Claudia_Kim","class_name":"Dense","config":{"units":136,"activation":"linear","use_bias":true,"kernel_initializer":{"class_name":"VarianceScaling","config":{"scale":1,"mode":"fan_avg","distribution":"normal","seed":null}},"bias_initializer":{"class_name":"Zeros","config":{}},"kernel_regularizer":null,"bias_regularizer":null,"activity_regularizer":null,"kernel_constraint":null,"bias_constraint":null,"name":"Claudia_Kim","trainable":true},"inbound_nodes":[[["input80",0,0,{}]]]},{"name":"Hailee_Steinfeld","class_name":"Dense","config":{"units":136,"activation":"linear","use_bias":true,"kernel_initializer":{"class_name":"VarianceScaling","config":{"scale":1,"mode":"fan_avg","distribution":"normal","seed":null}},"bias_initializer":{"class_name":"Zeros","config":{}},"kernel_regularizer":null,"bias_regularizer":null,"activity_regularizer":null,"kernel_constraint":null,"bias_constraint":null,"name":"Hailee_Steinfeld","trainable":true},"inbound_nodes":[[["input81",0,0,{}]]]},{"name":"Emilie_de_Ravin","class_name":"Dense","config":{"units":136,"activation":"linear","use_bias":true,"kernel_initializer":{"class_name":"VarianceScaling","config":{"scale":1,"mode":"fan_avg","distribution":"normal","seed":null}},"bias_initializer":{"class_name":"Zeros","config":{}},"kernel_regularizer":null,"bias_regularizer":null,"activity_regularizer":null,"kernel_constraint":null,"bias_constraint":null,"name":"Emilie_de_Ravin","trainable":true},"inbound_nodes":[[["input82",0,0,{}]]]},{"name":"Jennifer_Lawrence","class_name":"Dense","config":{"units":136,"activation":"linear","use_bias":true,"kernel_initializer":{"class_name":"VarianceScaling","config":{"scale":1,"mode":"fan_avg","distribution":"normal","seed":null}},"bias_initializer":{"class_name":"Zeros","config":{}},"kernel_regularizer":null,"bias_regularizer":null,"activity_regularizer":null,"kernel_constraint":null,"bias_constraint":null,"name":"Jennifer_Lawrence","trainable":true},"inbound_nodes":[[["input83",0,0,{}]]]},{"name":"Naomi_Watts","class_name":"Dense","config":{"units":136,"activation":"linear","use_bias":true,"kernel_initializer":{"class_name":"VarianceScaling","config":{"scale":1,"mode":"fan_avg","distribution":"normal","seed":null}},"bias_initializer":{"class_name":"Zeros","config":{}},"kernel_regularizer":null,"bias_regularizer":null,"activity_regularizer":null,"kernel_constraint":null,"bias_constraint":null,"name":"Naomi_Watts","trainable":true},"inbound_nodes":[[["input84",0,0,{}]]]},{"name":"Ornella_Muti","class_name":"Dense","config":{"units":136,"activation":"linear","use_bias":true,"kernel_initializer":{"class_name":"VarianceScaling","config":{"scale":1,"mode":"fan_avg","distribution":"normal","seed":null}},"bias_initializer":{"class_name":"Zeros","config":{}},"kernel_regularizer":null,"bias_regularizer":null,"activity_regularizer":null,"kernel_constraint":null,"bias_constraint":null,"name":"Ornella_Muti","trainable":true},"inbound_nodes":[[["input85",0,0,{}]]]},{"name":"Nelly_Furtado","class_name":"Dense","config":{"units":136,"activation":"linear","use_bias":true,"kernel_initializer":{"class_name":"VarianceScaling","config":{"scale":1,"mode":"fan_avg","distribution":"normal","seed":null}},"bias_initializer":{"class_name":"Zeros","config":{}},"kernel_regularizer":null,"bias_regularizer":null,"activity_regularizer":null,"kernel_constraint":null,"bias_constraint":null,"name":"Nelly_Furtado","trainable":true},"inbound_nodes":[[["input86",0,0,{}]]]},{"name":"Charlize_Theron","class_name":"Dense","config":{"units":136,"activation":"linear","use_bias":true,"kernel_initializer":{"class_name":"VarianceScaling","config":{"scale":1,"mode":"fan_avg","distribution":"normal","seed":null}},"bias_initializer":{"class_name":"Zeros","config":{}},"kernel_regularizer":null,"bias_regularizer":null,"activity_regularizer":null,"kernel_constraint":null,"bias_constraint":null,"name":"Charlize_Theron","trainable":true},"inbound_nodes":[[["input87",0,0,{}]]]},{"name":"Dajana_Kllogjri","class_name":"Dense","config":{"units":136,"activation":"linear","use_bias":true,"kernel_initializer":{"class_name":"VarianceScaling","config":{"scale":1,"mode":"fan_avg","distribution":"normal","seed":null}},"bias_initializer":{"class_name":"Zeros","config":{}},"kernel_regularizer":null,"bias_regularizer":null,"activity_regularizer":null,"kernel_constraint":null,"bias_constraint":null,"name":"Dajana_Kllogjri","trainable":true},"inbound_nodes":[[["input88",0,0,{}]]]},{"name":"Emily_Browning","class_name":"Dense","config":{"units":136,"activation":"linear","use_bias":true,"kernel_initializer":{"class_name":"VarianceScaling","config":{"scale":1,"mode":"fan_avg","distribution":"normal","seed":null}},"bias_initializer":{"class_name":"Zeros","config":{}},"kernel_regularizer":null,"bias_regularizer":null,"activity_regularizer":null,"kernel_constraint":null,"bias_constraint":null,"name":"Emily_Browning","trainable":true},"inbound_nodes":[[["input89",0,0,{}]]]},{"name":"Kirsten_Dunst","class_name":"Dense","config":{"units":136,"activation":"linear","use_bias":true,"kernel_initializer":{"class_name":"VarianceScaling","config":{"scale":1,"mode":"fan_avg","distribution":"normal","seed":null}},"bias_initializer":{"class_name":"Zeros","config":{}},"kernel_regularizer":null,"bias_regularizer":null,"activity_regularizer":null,"kernel_constraint":null,"bias_constraint":null,"name":"Kirsten_Dunst","trainable":true},"inbound_nodes":[[["input90",0,0,{}]]]},{"name":"Anne_Hathaway","class_name":"Dense","config":{"units":136,"activation":"linear","use_bias":true,"kernel_initializer":{"class_name":"VarianceScaling","config":{"scale":1,"mode":"fan_avg","distribution":"normal","seed":null}},"bias_initializer":{"class_name":"Zeros","config":{}},"kernel_regularizer":null,"bias_regularizer":null,"activity_regularizer":null,"kernel_constraint":null,"bias_constraint":null,"name":"Anne_Hathaway","trainable":true},"inbound_nodes":[[["input91",0,0,{}]]]},{"name":"Paulina_Porizkova","class_name":"Dense","config":{"units":136,"activation":"linear","use_bias":true,"kernel_initializer":{"class_name":"VarianceScaling","config":{"scale":1,"mode":"fan_avg","distribution":"normal","seed":null}},"bias_initializer":{"class_name":"Zeros","config":{}},"kernel_regularizer":null,"bias_regularizer":null,"activity_regularizer":null,"kernel_constraint":null,"bias_constraint":null,"name":"Paulina_Porizkova","trainable":true},"inbound_nodes":[[["input92",0,0,{}]]]},{"name":"Cameron_Diaz","class_name":"Dense","config":{"units":136,"activation":"linear","use_bias":true,"kernel_initializer":{"class_name":"VarianceScaling","config":{"scale":1,"mode":"fan_avg","distribution":"normal","seed":null}},"bias_initializer":{"class_name":"Zeros","config":{}},"kernel_regularizer":null,"bias_regularizer":null,"activity_regularizer":null,"kernel_constraint":null,"bias_constraint":null,"name":"Cameron_Diaz","trainable":true},"inbound_nodes":[[["input93",0,0,{}]]]},{"name":"Kate_Bosworth","class_name":"Dense","config":{"units":136,"activation":"linear","use_bias":true,"kernel_initializer":{"class_name":"VarianceScaling","config":{"scale":1,"mode":"fan_avg","distribution":"normal","seed":null}},"bias_initializer":{"class_name":"Zeros","config":{}},"kernel_regularizer":null,"bias_regularizer":null,"activity_regularizer":null,"kernel_constraint":null,"bias_constraint":null,"name":"Kate_Bosworth","trainable":true},"inbound_nodes":[[["input94",0,0,{}]]]},{"name":"Monica_Hansen","class_name":"Dense","config":{"units":136,"activation":"linear","use_bias":true,"kernel_initializer":{"class_name":"VarianceScaling","config":{"scale":1,"mode":"fan_avg","distribution":"normal","seed":null}},"bias_initializer":{"class_name":"Zeros","config":{}},"kernel_regularizer":null,"bias_regularizer":null,"activity_regularizer":null,"kernel_constraint":null,"bias_constraint":null,"name":"Monica_Hansen","trainable":true},"inbound_nodes":[[["input95",0,0,{}]]]},{"name":"Penelope_Cruz","class_name":"Dense","config":{"units":136,"activation":"linear","use_bias":true,"kernel_initializer":{"class_name":"VarianceScaling","config":{"scale":1,"mode":"fan_avg","distribution":"normal","seed":null}},"bias_initializer":{"class_name":"Zeros","config":{}},"kernel_regularizer":null,"bias_regularizer":null,"activity_regularizer":null,"kernel_constraint":null,"bias_constraint":null,"name":"Penelope_Cruz","trainable":true},"inbound_nodes":[[["input96",0,0,{}]]]},{"name":"Michelle_Pfeiffer","class_name":"Dense","config":{"units":136,"activation":"linear","use_bias":true,"kernel_initializer":{"class_name":"VarianceScaling","config":{"scale":1,"mode":"fan_avg","distribution":"normal","seed":null}},"bias_initializer":{"class_name":"Zeros","config":{}},"kernel_regularizer":null,"bias_regularizer":null,"activity_regularizer":null,"kernel_constraint":null,"bias_constraint":null,"name":"Michelle_Pfeiffer","trainable":true},"inbound_nodes":[[["input97",0,0,{}]]]},{"name":"Alexandra_Daddario","class_name":"Dense","config":{"units":136,"activation":"linear","use_bias":true,"kernel_initializer":{"class_name":"VarianceScaling","config":{"scale":1,"mode":"fan_avg","distribution":"normal","seed":null}},"bias_initializer":{"class_name":"Zeros","config":{}},"kernel_regularizer":null,"bias_regularizer":null,"activity_regularizer":null,"kernel_constraint":null,"bias_constraint":null,"name":"Alexandra_Daddario","trainable":true},"inbound_nodes":[[["input98",0,0,{}]]]},{"name":"Halle_Berry","class_name":"Dense","config":{"units":136,"activation":"linear","use_bias":true,"kernel_initializer":{"class_name":"VarianceScaling","config":{"scale":1,"mode":"fan_avg","distribution":"normal","seed":null}},"bias_initializer":{"class_name":"Zeros","config":{}},"kernel_regularizer":null,"bias_regularizer":null,"activity_regularizer":null,"kernel_constraint":null,"bias_constraint":null,"name":"Halle_Berry","trainable":true},"inbound_nodes":[[["input99",0,0,{}]]]},{"name":"Angela_Martini","class_name":"Dense","config":{"units":136,"activation":"linear","use_bias":true,"kernel_initializer":{"class_name":"VarianceScaling","config":{"scale":1,"mode":"fan_avg","distribution":"normal","seed":null}},"bias_initializer":{"class_name":"Zeros","config":{}},"kernel_regularizer":null,"bias_regularizer":null,"activity_regularizer":null,"kernel_constraint":null,"bias_constraint":null,"name":"Angela_Martini","trainable":true},"inbound_nodes":[[["input100",0,0,{}]]]},{"name":"myConcatenate1","class_name":"Concatenate","config":{"axis":1,"name":"myConcatenate1","trainable":true},"inbound_nodes":[[["Megan_Fox",0,0,{}],["Mila_Kunis",0,0,{}],["Amanda_Seyfried",0,0,{}],["Hayden_Panettiere",0,0,{}],["Missy_Peregrym",0,0,{}],["Rachel_McAdams",0,0,{}],["Zoya_Afroz",0,0,{}],["Natalie_Portman",0,0,{}],["Lyrica_Okano",0,0,{}],["Jennifer_Connelly",0,0,{}],["Malin_Akerman",0,0,{}],["Priyanka_Chopra",0,0,{}],["Lyndsy_Fonseca",0,0,{}],["Scarlett_Johansson",0,0,{}],["Tamanna_Bhatia",0,0,{}],["Lana_Parrilla",0,0,{}],["Emma_Stone",0,0,{}],["Jessica_Alba",0,0,{}],["Bethany_Joy_Lenz",0,0,{}],["Ellen_Page",0,0,{}],["Kate_Beckinsale",0,0,{}],["Diane_Kruger",0,0,{}],["Rihanna",0,0,{}],["Rachel_Bilson",0,0,{}],["Drew_Barrymore",0,0,{}],["Taylor_Swift",0,0,{}],["Alison_Lohman",0,0,{}],["Angelina_Jolie",0,0,{}],["Nadine_Njeim",0,0,{}],["Ashley_Greene",0,0,{}],["Jessica_Stroup",0,0,{}],["Selena_Gomez",0,0,{}],["Leighton_Meester",0,0,{}],["Kylie_Jenner",0,0,{}],["Nikki_Reed",0,0,{}],["Beyonce",0,0,{}],["Emma_Watson",0,0,{}],["Eva_Green",0,0,{}],["Cobie_Smulders",0,0,{}],["Zooey_Deschanel",0,0,{}],["Emily_Blunt",0,0,{}],["Kathryn_Prescott",0,0,{}],["Katherine_Heigl",0,0,{}],["Ashley_Benson",0,0,{}],["Hilarie_Burton",0,0,{}],["Alexis_Bledel",0,0,{}],["Rosario_Dawson",0,0,{}],["Kate_Walsh",0,0,{}],["Claire_Danes",0,0,{}],["Sienna_Miller",0,0,{}],["Shannyn_Sossamon",0,0,{}],["Fan_Bingbing",0,0,{}],["Piper_Perabo",0,0,{}],["Halla_Vilhjalmsdottir",0,0,{}],["Jordana_Brewster",0,0,{}],["Samaire_Armstrong",0,0,{}],["Carey_Mulligan",0,0,{}],["Kate_Hudson",0,0,{}],["Fahriye_Evcen",0,0,{}],["Gemma_Arterton",0,0,{}],["Jennifer_Lopez",0,0,{}],["Naya_Rivera",0,0,{}],["Emma_Roberts",0,0,{}],["Ariana_Grande",0,0,{}],["Kate_Upton",0,0,{}],["Elle_Fanning",0,0,{}],["Reese_Witherspoon",0,0,{}],["Brittany_Snow",0,0,{}],["Nina_Dobrev",0,0,{}],["Zoe_Saldana",0,0,{}],["Miranda_Kerr",0,0,{}],["Kelsey_Chow",0,0,{}],["Monica_Bellucci",0,0,{}],["Liza_Berggren",0,0,{}],["Indiana_Evans",0,0,{}],["Amber_Heard",0,0,{}],["Sharon_Stone",0,0,{}],["Emina_Cunmulaj",0,0,{}],["Alicia_Keys",0,0,{}],["Claudia_Kim",0,0,{}],["Hailee_Steinfeld",0,0,{}],["Emilie_de_Ravin",0,0,{}],["Jennifer_Lawrence",0,0,{}],["Naomi_Watts",0,0,{}],["Ornella_Muti",0,0,{}],["Nelly_Furtado",0,0,{}],["Charlize_Theron",0,0,{}],["Dajana_Kllogjri",0,0,{}],["Emily_Browning",0,0,{}],["Kirsten_Dunst",0,0,{}],["Anne_Hathaway",0,0,{}],["Paulina_Porizkova",0,0,{}],["Cameron_Diaz",0,0,{}],["Kate_Bosworth",0,0,{}],["Monica_Hansen",0,0,{}],["Penelope_Cruz",0,0,{}],["Michelle_Pfeiffer",0,0,{}],["Alexandra_Daddario",0,0,{}],["Halle_Berry",0,0,{}],["Angela_Martini",0,0,{}]]]},{"name":"myConcatenate1Dense4","class_name":"Dense","config":{"units":1,"activation":"linear","use_bias":true,"kernel_initializer":{"class_name":"VarianceScaling","config":{"scale":1,"mode":"fan_avg","distribution":"normal","seed":null}},"bias_initializer":{"class_name":"Zeros","config":{}},"kernel_regularizer":null,"bias_regularizer":null,"activity_regularizer":null,"kernel_constraint":null,"bias_constraint":null,"name":"myConcatenate1Dense4","trainable":true},"inbound_nodes":[[["myConcatenate1",0,0,{}]]]}],"input_layers":[["input1",0,0],["input2",0,0],["input3",0,0],["input4",0,0],["input5",0,0],["input6",0,0],["input7",0,0],["input8",0,0],["input9",0,0],["input10",0,0],["input11",0,0],["input12",0,0],["input13",0,0],["input14",0,0],["input15",0,0],["input16",0,0],["input17",0,0],["input18",0,0],["input19",0,0],["input20",0,0],["input21",0,0],["input22",0,0],["input23",0,0],["input24",0,0],["input25",0,0],["input26",0,0],["input27",0,0],["input28",0,0],["input29",0,0],["input30",0,0],["input31",0,0],["input32",0,0],["input33",0,0],["input34",0,0],["input35",0,0],["input36",0,0],["input37",0,0],["input38",0,0],["input39",0,0],["input40",0,0],["input41",0,0],["input42",0,0],["input43",0,0],["input44",0,0],["input45",0,0],["input46",0,0],["input47",0,0],["input48",0,0],["input49",0,0],["input50",0,0],["input51",0,0],["input52",0,0],["input53",0,0],["input54",0,0],["input55",0,0],["input56",0,0],["input57",0,0],["input58",0,0],["input59",0,0],["input60",0,0],["input61",0,0],["input62",0,0],["input63",0,0],["input64",0,0],["input65",0,0],["input66",0,0],["input67",0,0],["input68",0,0],["input69",0,0],["input70",0,0],["input71",0,0],["input72",0,0],["input73",0,0],["input74",0,0],["input75",0,0],["input76",0,0],["input77",0,0],["input78",0,0],["input79",0,0],["input80",0,0],["input81",0,0],["input82",0,0],["input83",0,0],["input84",0,0],["input85",0,0],["input86",0,0],["input87",0,0],["input88",0,0],["input89",0,0],["input90",0,0],["input91",0,0],["input92",0,0],["input93",0,0],["input94",0,0],["input95",0,0],["input96",0,0],["input97",0,0],["input98",0,0],["input99",0,0],["input100",0,0]],"output_layers":[["myConcatenate1Dense4",0,0]]},"keras_version":"tfjs-layers 0.8.1","backend":"tensor_flow.js"},"weightsManifest":[{"paths":["./myClassifierModel01.weights.bin"],"weights":[{"name":"Megan_Fox/kernel","shape":[10,136],"dtype":"float32"},{"name":"Megan_Fox/bias","shape":[136],"dtype":"float32"},{"name":"Mila_Kunis/kernel","shape":[10,136],"dtype":"float32"},{"name":"Mila_Kunis/bias","shape":[136],"dtype":"float32"},{"name":"Amanda_Seyfried/kernel","shape":[10,136],"dtype":"float32"},{"name":"Amanda_Seyfried/bias","shape":[136],"dtype":"float32"},{"name":"Hayden_Panettiere/kernel","shape":[10,136],"dtype":"float32"},{"name":"Hayden_Panettiere/bias","shape":[136],"dtype":"float32"},{"name":"Missy_Peregrym/kernel","shape":[10,136],"dtype":"float32"},{"name":"Missy_Peregrym/bias","shape":[136],"dtype":"float32"},{"name":"Rachel_McAdams/kernel","shape":[10,136],"dtype":"float32"},{"name":"Rachel_McAdams/bias","shape":[136],"dtype":"float32"},{"name":"Zoya_Afroz/kernel","shape":[10,136],"dtype":"float32"},{"name":"Zoya_Afroz/bias","shape":[136],"dtype":"float32"},{"name":"Natalie_Portman/kernel","shape":[10,136],"dtype":"float32"},{"name":"Natalie_Portman/bias","shape":[136],"dtype":"float32"},{"name":"Lyrica_Okano/kernel","shape":[10,136],"dtype":"float32"},{"name":"Lyrica_Okano/bias","shape":[136],"dtype":"float32"},{"name":"Jennifer_Connelly/kernel","shape":[10,136],"dtype":"float32"},{"name":"Jennifer_Connelly/bias","shape":[136],"dtype":"float32"},{"name":"Malin_Akerman/kernel","shape":[10,136],"dtype":"float32"},{"name":"Malin_Akerman/bias","shape":[136],"dtype":"float32"},{"name":"Priyanka_Chopra/kernel","shape":[10,136],"dtype":"float32"},{"name":"Priyanka_Chopra/bias","shape":[136],"dtype":"float32"},{"name":"Lyndsy_Fonseca/kernel","shape":[10,136],"dtype":"float32"},{"name":"Lyndsy_Fonseca/bias","shape":[136],"dtype":"float32"},{"name":"Scarlett_Johansson/kernel","shape":[10,136],"dtype":"float32"},{"name":"Scarlett_Johansson/bias","shape":[136],"dtype":"float32"},{"name":"Tamanna_Bhatia/kernel","shape":[10,136],"dtype":"float32"},{"name":"Tamanna_Bhatia/bias","shape":[136],"dtype":"float32"},{"name":"Lana_Parrilla/kernel","shape":[10,136],"dtype":"float32"},{"name":"Lana_Parrilla/bias","shape":[136],"dtype":"float32"},{"name":"Emma_Stone/kernel","shape":[10,136],"dtype":"float32"},{"name":"Emma_Stone/bias","shape":[136],"dtype":"float32"},{"name":"Jessica_Alba/kernel","shape":[10,136],"dtype":"float32"},{"name":"Jessica_Alba/bias","shape":[136],"dtype":"float32"},{"name":"Bethany_Joy_Lenz/kernel","shape":[10,136],"dtype":"float32"},{"name":"Bethany_Joy_Lenz/bias","shape":[136],"dtype":"float32"},{"name":"Ellen_Page/kernel","shape":[10,136],"dtype":"float32"},{"name":"Ellen_Page/bias","shape":[136],"dtype":"float32"},{"name":"Kate_Beckinsale/kernel","shape":[10,136],"dtype":"float32"},{"name":"Kate_Beckinsale/bias","shape":[136],"dtype":"float32"},{"name":"Diane_Kruger/kernel","shape":[10,136],"dtype":"float32"},{"name":"Diane_Kruger/bias","shape":[136],"dtype":"float32"},{"name":"Rihanna/kernel","shape":[10,136],"dtype":"float32"},{"name":"Rihanna/bias","shape":[136],"dtype":"float32"},{"name":"Rachel_Bilson/kernel","shape":[10,136],"dtype":"float32"},{"name":"Rachel_Bilson/bias","shape":[136],"dtype":"float32"},{"name":"Drew_Barrymore/kernel","shape":[10,136],"dtype":"float32"},{"name":"Drew_Barrymore/bias","shape":[136],"dtype":"float32"},{"name":"Taylor_Swift/kernel","shape":[10,136],"dtype":"float32"},{"name":"Taylor_Swift/bias","shape":[136],"dtype":"float32"},{"name":"Alison_Lohman/kernel","shape":[10,136],"dtype":"float32"},{"name":"Alison_Lohman/bias","shape":[136],"dtype":"float32"},{"name":"Angelina_Jolie/kernel","shape":[10,136],"dtype":"float32"},{"name":"Angelina_Jolie/bias","shape":[136],"dtype":"float32"},{"name":"Nadine_Njeim/kernel","shape":[10,136],"dtype":"float32"},{"name":"Nadine_Njeim/bias","shape":[136],"dtype":"float32"},{"name":"Ashley_Greene/kernel","shape":[10,136],"dtype":"float32"},{"name":"Ashley_Greene/bias","shape":[136],"dtype":"float32"},{"name":"Jessica_Stroup/kernel","shape":[10,136],"dtype":"float32"},{"name":"Jessica_Stroup/bias","shape":[136],"dtype":"float32"},{"name":"Selena_Gomez/kernel","shape":[10,136],"dtype":"float32"},{"name":"Selena_Gomez/bias","shape":[136],"dtype":"float32"},{"name":"Leighton_Meester/kernel","shape":[10,136],"dtype":"float32"},{"name":"Leighton_Meester/bias","shape":[136],"dtype":"float32"},{"name":"Kylie_Jenner/kernel","shape":[10,136],"dtype":"float32"},{"name":"Kylie_Jenner/bias","shape":[136],"dtype":"float32"},{"name":"Nikki_Reed/kernel","shape":[10,136],"dtype":"float32"},{"name":"Nikki_Reed/bias","shape":[136],"dtype":"float32"},{"name":"Beyonce/kernel","shape":[10,136],"dtype":"float32"},{"name":"Beyonce/bias","shape":[136],"dtype":"float32"},{"name":"Emma_Watson/kernel","shape":[10,136],"dtype":"float32"},{"name":"Emma_Watson/bias","shape":[136],"dtype":"float32"},{"name":"Eva_Green/kernel","shape":[10,136],"dtype":"float32"},{"name":"Eva_Green/bias","shape":[136],"dtype":"float32"},{"name":"Cobie_Smulders/kernel","shape":[10,136],"dtype":"float32"},{"name":"Cobie_Smulders/bias","shape":[136],"dtype":"float32"},{"name":"Zooey_Deschanel/kernel","shape":[10,136],"dtype":"float32"},{"name":"Zooey_Deschanel/bias","shape":[136],"dtype":"float32"},{"name":"Emily_Blunt/kernel","shape":[10,136],"dtype":"float32"},{"name":"Emily_Blunt/bias","shape":[136],"dtype":"float32"},{"name":"Kathryn_Prescott/kernel","shape":[10,136],"dtype":"float32"},{"name":"Kathryn_Prescott/bias","shape":[136],"dtype":"float32"},{"name":"Katherine_Heigl/kernel","shape":[10,136],"dtype":"float32"},{"name":"Katherine_Heigl/bias","shape":[136],"dtype":"float32"},{"name":"Ashley_Benson/kernel","shape":[10,136],"dtype":"float32"},{"name":"Ashley_Benson/bias","shape":[136],"dtype":"float32"},{"name":"Hilarie_Burton/kernel","shape":[10,136],"dtype":"float32"},{"name":"Hilarie_Burton/bias","shape":[136],"dtype":"float32"},{"name":"Alexis_Bledel/kernel","shape":[10,136],"dtype":"float32"},{"name":"Alexis_Bledel/bias","shape":[136],"dtype":"float32"},{"name":"Rosario_Dawson/kernel","shape":[10,136],"dtype":"float32"},{"name":"Rosario_Dawson/bias","shape":[136],"dtype":"float32"},{"name":"Kate_Walsh/kernel","shape":[10,136],"dtype":"float32"},{"name":"Kate_Walsh/bias","shape":[136],"dtype":"float32"},{"name":"Claire_Danes/kernel","shape":[10,136],"dtype":"float32"},{"name":"Claire_Danes/bias","shape":[136],"dtype":"float32"},{"name":"Sienna_Miller/kernel","shape":[10,136],"dtype":"float32"},{"name":"Sienna_Miller/bias","shape":[136],"dtype":"float32"},{"name":"Shannyn_Sossamon/kernel","shape":[10,136],"dtype":"float32"},{"name":"Shannyn_Sossamon/bias","shape":[136],"dtype":"float32"},{"name":"Fan_Bingbing/kernel","shape":[10,136],"dtype":"float32"},{"name":"Fan_Bingbing/bias","shape":[136],"dtype":"float32"},{"name":"Piper_Perabo/kernel","shape":[10,136],"dtype":"float32"},{"name":"Piper_Perabo/bias","shape":[136],"dtype":"float32"},{"name":"Halla_Vilhjalmsdottir/kernel","shape":[10,136],"dtype":"float32"},{"name":"Halla_Vilhjalmsdottir/bias","shape":[136],"dtype":"float32"},{"name":"Jordana_Brewster/kernel","shape":[10,136],"dtype":"float32"},{"name":"Jordana_Brewster/bias","shape":[136],"dtype":"float32"},{"name":"Samaire_Armstrong/kernel","shape":[10,136],"dtype":"float32"},{"name":"Samaire_Armstrong/bias","shape":[136],"dtype":"float32"},{"name":"Carey_Mulligan/kernel","shape":[10,136],"dtype":"float32"},{"name":"Carey_Mulligan/bias","shape":[136],"dtype":"float32"},{"name":"Kate_Hudson/kernel","shape":[10,136],"dtype":"float32"},{"name":"Kate_Hudson/bias","shape":[136],"dtype":"float32"},{"name":"Fahriye_Evcen/kernel","shape":[10,136],"dtype":"float32"},{"name":"Fahriye_Evcen/bias","shape":[136],"dtype":"float32"},{"name":"Gemma_Arterton/kernel","shape":[10,136],"dtype":"float32"},{"name":"Gemma_Arterton/bias","shape":[136],"dtype":"float32"},{"name":"Jennifer_Lopez/kernel","shape":[10,136],"dtype":"float32"},{"name":"Jennifer_Lopez/bias","shape":[136],"dtype":"float32"},{"name":"Naya_Rivera/kernel","shape":[10,136],"dtype":"float32"},{"name":"Naya_Rivera/bias","shape":[136],"dtype":"float32"},{"name":"Emma_Roberts/kernel","shape":[10,136],"dtype":"float32"},{"name":"Emma_Roberts/bias","shape":[136],"dtype":"float32"},{"name":"Ariana_Grande/kernel","shape":[10,136],"dtype":"float32"},{"name":"Ariana_Grande/bias","shape":[136],"dtype":"float32"},{"name":"Kate_Upton/kernel","shape":[10,136],"dtype":"float32"},{"name":"Kate_Upton/bias","shape":[136],"dtype":"float32"},{"name":"Elle_Fanning/kernel","shape":[10,136],"dtype":"float32"},{"name":"Elle_Fanning/bias","shape":[136],"dtype":"float32"},{"name":"Reese_Witherspoon/kernel","shape":[10,136],"dtype":"float32"},{"name":"Reese_Witherspoon/bias","shape":[136],"dtype":"float32"},{"name":"Brittany_Snow/kernel","shape":[10,136],"dtype":"float32"},{"name":"Brittany_Snow/bias","shape":[136],"dtype":"float32"},{"name":"Nina_Dobrev/kernel","shape":[10,136],"dtype":"float32"},{"name":"Nina_Dobrev/bias","shape":[136],"dtype":"float32"},{"name":"Zoe_Saldana/kernel","shape":[10,136],"dtype":"float32"},{"name":"Zoe_Saldana/bias","shape":[136],"dtype":"float32"},{"name":"Miranda_Kerr/kernel","shape":[10,136],"dtype":"float32"},{"name":"Miranda_Kerr/bias","shape":[136],"dtype":"float32"},{"name":"Kelsey_Chow/kernel","shape":[10,136],"dtype":"float32"},{"name":"Kelsey_Chow/bias","shape":[136],"dtype":"float32"},{"name":"Monica_Bellucci/kernel","shape":[10,136],"dtype":"float32"},{"name":"Monica_Bellucci/bias","shape":[136],"dtype":"float32"},{"name":"Liza_Berggren/kernel","shape":[10,136],"dtype":"float32"},{"name":"Liza_Berggren/bias","shape":[136],"dtype":"float32"},{"name":"Indiana_Evans/kernel","shape":[10,136],"dtype":"float32"},{"name":"Indiana_Evans/bias","shape":[136],"dtype":"float32"},{"name":"Amber_Heard/kernel","shape":[10,136],"dtype":"float32"},{"name":"Amber_Heard/bias","shape":[136],"dtype":"float32"},{"name":"Sharon_Stone/kernel","shape":[10,136],"dtype":"float32"},{"name":"Sharon_Stone/bias","shape":[136],"dtype":"float32"},{"name":"Emina_Cunmulaj/kernel","shape":[10,136],"dtype":"float32"},{"name":"Emina_Cunmulaj/bias","shape":[136],"dtype":"float32"},{"name":"Alicia_Keys/kernel","shape":[10,136],"dtype":"float32"},{"name":"Alicia_Keys/bias","shape":[136],"dtype":"float32"},{"name":"Claudia_Kim/kernel","shape":[10,136],"dtype":"float32"},{"name":"Claudia_Kim/bias","shape":[136],"dtype":"float32"},{"name":"Hailee_Steinfeld/kernel","shape":[10,136],"dtype":"float32"},{"name":"Hailee_Steinfeld/bias","shape":[136],"dtype":"float32"},{"name":"Emilie_de_Ravin/kernel","shape":[10,136],"dtype":"float32"},{"name":"Emilie_de_Ravin/bias","shape":[136],"dtype":"float32"},{"name":"Jennifer_Lawrence/kernel","shape":[10,136],"dtype":"float32"},{"name":"Jennifer_Lawrence/bias","shape":[136],"dtype":"float32"},{"name":"Naomi_Watts/kernel","shape":[10,136],"dtype":"float32"},{"name":"Naomi_Watts/bias","shape":[136],"dtype":"float32"},{"name":"Ornella_Muti/kernel","shape":[10,136],"dtype":"float32"},{"name":"Ornella_Muti/bias","shape":[136],"dtype":"float32"},{"name":"Nelly_Furtado/kernel","shape":[10,136],"dtype":"float32"},{"name":"Nelly_Furtado/bias","shape":[136],"dtype":"float32"},{"name":"Charlize_Theron/kernel","shape":[10,136],"dtype":"float32"},{"name":"Charlize_Theron/bias","shape":[136],"dtype":"float32"},{"name":"Dajana_Kllogjri/kernel","shape":[10,136],"dtype":"float32"},{"name":"Dajana_Kllogjri/bias","shape":[136],"dtype":"float32"},{"name":"Emily_Browning/kernel","shape":[10,136],"dtype":"float32"},{"name":"Emily_Browning/bias","shape":[136],"dtype":"float32"},{"name":"Kirsten_Dunst/kernel","shape":[10,136],"dtype":"float32"},{"name":"Kirsten_Dunst/bias","shape":[136],"dtype":"float32"},{"name":"Anne_Hathaway/kernel","shape":[10,136],"dtype":"float32"},{"name":"Anne_Hathaway/bias","shape":[136],"dtype":"float32"},{"name":"Paulina_Porizkova/kernel","shape":[10,136],"dtype":"float32"},{"name":"Paulina_Porizkova/bias","shape":[136],"dtype":"float32"},{"name":"Cameron_Diaz/kernel","shape":[10,136],"dtype":"float32"},{"name":"Cameron_Diaz/bias","shape":[136],"dtype":"float32"},{"name":"Kate_Bosworth/kernel","shape":[10,136],"dtype":"float32"},{"name":"Kate_Bosworth/bias","shape":[136],"dtype":"float32"},{"name":"Monica_Hansen/kernel","shape":[10,136],"dtype":"float32"},{"name":"Monica_Hansen/bias","shape":[136],"dtype":"float32"},{"name":"Penelope_Cruz/kernel","shape":[10,136],"dtype":"float32"},{"name":"Penelope_Cruz/bias","shape":[136],"dtype":"float32"},{"name":"Michelle_Pfeiffer/kernel","shape":[10,136],"dtype":"float32"},{"name":"Michelle_Pfeiffer/bias","shape":[136],"dtype":"float32"},{"name":"Alexandra_Daddario/kernel","shape":[10,136],"dtype":"float32"},{"name":"Alexandra_Daddario/bias","shape":[136],"dtype":"float32"},{"name":"Halle_Berry/kernel","shape":[10,136],"dtype":"float32"},{"name":"Halle_Berry/bias","shape":[136],"dtype":"float32"},{"name":"Angela_Martini/kernel","shape":[10,136],"dtype":"float32"},{"name":"Angela_Martini/bias","shape":[136],"dtype":"float32"},{"name":"myConcatenate1Dense4/kernel","shape":[13600,1],"dtype":"float32"},{"name":"myConcatenate1Dense4/bias","shape":[1],"dtype":"float32"}]}]}